app/ds_models/plate_detect_model_new.tflite (tflite, 916932 bytes, 8 tensors)

arith.constant f4 [64]
000000 bd 45 d6 bc 11 6e e4 bb 73 80 3e bd 04 de 71 bd
       -0.0261563 -0.0069711288 -0.046509217 -0.05904962
000010 93 41 55 3d ca 58 23 be 8c 53 7c 3c e4 b2 25 bc
       0.05206449 -0.15951839 0.0154007785 -0.010113452
000020 5e f9 88 3c 89 06 21 3d 77 3c 47 3d 2d 97 36 3d
       0.01672047 0.039312873 0.04864165 0.044577766
000030 8e 88 f3 3b 5e 28 2d be 9e d3 87 bd bc 5a 4c bd
       0.00743205 -0.1690993 -0.0663216 -0.04989122
000040 ee 97 41 bd 74 04 06 3d cd 64 99 bc 3a 49 a2 bb
       -0.047264032 0.03271909 -0.018724823 -0.004952577
000050 1e 39 f9 bc 31 6c 6d 3c 2f 0d aa 3b 86 fb 03 bd
       -0.030422743 0.014491127 0.00518956 -0.032222293
000060 1d 9f f0 bc f3 1c 1f bc 22 1d a8 bc 7d 35 07 bd
       -0.029372746 -0.009711492 -0.020521704 -0.033009995
000070 89 bb 9d bd 0b ed 6f bd e3 8d a9 bd 6d 73 82 3c
       -0.07701785 -0.05857567 -0.08279016 0.01592418
000080 80 79 3b 3c f1 73 45 bd 31 53 a4 bd 4a 1c 38 bd
       0.011442542 -0.048206273 -0.0802368 -0.044948854
000090 8f 26 d4 be 34 ef 04 3e b3 dc 47 bd df 13 3a be
       -0.41435668 0.12981874 -0.04879446 -0.18171643
0000a0 ce c1 0b bc 5c 20 3d b9 48 d0 ae bd c7 39 c6 be
       -0.008530093 -0.000180365 -0.0853582 -0.38715956
0000b0 00 7a 13 3d 3c dc a5 bc 71 73 95 be 15 1e d7 bc
       0.03600502 -0.020246617 -0.29189637 -0.026259461
0000c0 07 c2 d2 3c a3 02 00 3c 90 70 85 3c ba ca 7a 3e
       0.025727285 0.007813129 0.016289026 0.24491397
0000d0 5f 3b 17 3c a4 63 1d 3d ea 2c 54 bd 4d d4 f4 bc
       0.009230464 0.038425103 -0.051800646 -0.02988639
0000e0 b8 75 3d 3d 69 84 b7 3d bf 2d b7 3c 66 24 ad 3c
       0.046254843 0.08960802 0.02236068 0.02113552
0000f0 51 3b 3d 3d 4e e2 a2 3c b0 78 17 3b 8d b6 8a bc
       0.046199147 0.019883301 0.0023112707 -0.01693275

arith.constant1 f4 [64, 3, 3, 32]
000000 96 a0 f5 bc 01 7c 1b be 0f 05 00 be 6c 8b 8d 3e
       -0.0299838 -0.15184022 -0.1250193 0.27645433
000010 17 d0 b9 3d 43 e5 95 bd a1 20 94 bb 3a 02 2c bd
       0.09072893 -0.07319119 -0.004520491 -0.04199431
000020 87 95 26 bd 9a 91 78 bd 48 9c 04 bf 7d 8b 0c 3d
       -0.040669944 -0.06068573 -0.51800966 0.034312714
000030 6d c3 20 3c 91 4f c1 3d 3a ca 98 bd d3 11 a5 bd
       0.009812218 0.09439004 -0.07460447 -0.0806004
000040 92 fe 13 bd 61 68 23 bd 42 73 56 3d 90 09 ff be
       -0.03613145 -0.039894465 0.052356012 -0.49811983
000050 2f 6d a0 3c d6 14 96 bd 22 a4 0e 3d c5 a2 69 3e
       0.019583313 -0.07328193 0.034824498 0.22815998
000060 97 4b 98 3c 65 95 27 be 00 0a 3d bf 6d 1c 16 be
       0.018590732 -0.16365583 -0.73843384 -0.14659281
000070 69 fa a6 3d 87 29 06 be ab f4 df 3d 6c 8f 81 3d
       0.08153231 -0.13101779 0.109353386 0.06326184
000080 22 44 39 be a6 c4 e6 bc 7d 3e 25 bd 17 4e 44 be
       -0.18092397 -0.028169941 -0.040342797 -0.19170414
000090 f3 67 8f bd fc 30 76 3d cb 27 c1 bc 39 d8 d2 bd
       -0.070022486 0.06010531 -0.023578545 -0.102951474
0000a0 93 3c c9 bd cb 82 73 3d 13 10 0b 3d eb 52 03 bd
       -0.09826007 0.059450906 0.033950876 -0.0320615
0000b0 7f ff 4f be fb 1c d4 bd df 3d aa bc c8 45 7f bd
       -0.20312308 -0.1035709 -0.020781456 -0.062322408
0000c0 ee 2e 88 3e a0 49 81 3d bd 80 ab bd 59 b4 85 3e
       0.26598305 0.06312871 -0.08374164 0.26114157
0000d0 0d 0c d4 bd 8d 99 fd 3c fa 34 c5 bd 2e f2 34 3e
       -0.10353861 0.030957008 -0.09629245 0.17670509
0000e0 ea 5a 9d bd 4e ca 16 3d 1c 05 bd 3c c8 0b 1b be
       -0.07683356 0.036814027 0.023073725 -0.15141213
0000f0 9f a4 50 bd 42 69 67 3e 44 4d f8 bd bc e1 04 3d
       -0.050938245 0.22598746 -0.12124112 0.03244184
000100 79 30 80 bc 61 d9 cc 3d 1f 7c 2a 3d 73 28 04 3e
       -0.015648114 0.10002399 0.041622277 0.12906055
000110 a6 d8 b2 3a 29 17 b6 3d e0 5d 70 3e 3c 1f 85 3e
       0.0013644889 0.08891136 0.2347331 0.26000392
000120 48 11 d3 be c1 af 3e 3e 97 71 8d 3d 99 b7 7c be
       -0.41224122 0.18621732 0.06906431 -0.24679412
000130 83 e6 7f bd 6e d6 a6 be ad 57 cb bb 2a 21 a3 be
       -0.062475692 -0.32585472 -0.00620552 -0.3186124
000140 a6 14 10 3f 7e 42 63 3d 37 af 27 bd 81 54 60 3e
       0.56281507 0.055483334 -0.040938582 0.21907236
000150 ee 3c cc bd 08 a6 c7 3e b9 0f a7 bd a8 a1 2d 3e
       -0.09972559 0.3899386 -0.08157296 0.16956198
000160 3e ce 83 bd 2e 35 b5 3d 34 0f 30 3e cd 57 15 3d
       -0.06435822 0.08848034 0.171933 0.036460686
000170 bc 4c 5d 3d 80 f7 94 3e d0 f1 49 3d f6 ac a6 3e
       0.054028258 0.29095078 0.049302876 0.32553834
000180 e5 ad 0f be e9 90 07 3e fe 1d 8c be 1b 57 01 3e
       -0.14031179 0.13238873 -0.27366632 0.12630884
000190 7c c5 86 3e 80 81 77 be 01 63 00 be 78 12 8c 3d
       0.26322544 -0.24170494 -0.12537767 0.0683946
0001a0 78 c9 c9 3e 86 77 87 bd 02 48 24 3d cb 72 02 3e
       0.3941152 -0.06614594 0.040107735 0.12739103
0001b0 81 e1 98 bc 23 15 cd 3d 4d bf eb be e5 e1 84 3e
       -0.018662216 0.10013797 -0.46044388 0.25953594
0001c0 51 90 cf be aa 0c c8 be 7f d4 ef 3d 88 1c fd be
       -0.40539792 -0.39072162 0.11710452 -0.4943583
0001d0 0d 02 a8 bd 1f 15 83 bc 03 91 28 3d f3 32 aa bd
       -0.08203516 -0.016001282 0.04115392 -0.08310499
0001e0 9a b6 ee 3c f5 db ba be ae 83 ef be b6 8b bf bd
       0.029139806 -0.3649594 -0.4678015 -0.093528196
0001f0 56 c1 9d bc a4 39 15 bf 38 5b 30 3e 60 e5 e3 3d
       -0.019257229 -0.5829108 0.17222297 0.11127734
000200 e6 99 2c be b6 ec fe 3d dd 90 20 3e 14 1c f3 be
       -0.16855583 0.12447493 0.15680261 -0.4748236
000210 d4 24 e9 3e 81 9e 9e bd 8b 59 38 bd 61 97 0d 3e
       0.4553591 -0.07745076 -0.04500727 0.13827278
000220 dd 89 59 3e 0c 7d bd 3c aa 0e ff 3d 07 27 95 3d
       0.21243997 0.023130916 0.12453969 0.072828345
000230 9c 18 ba bd f9 66 40 3e c3 08 58 bd cc dc 27 3e
       -0.09086725 0.18789281 -0.05274273 0.16392821
000240 a5 05 d1 bd d9 99 17 bd a3 c4 db 3c e1 c8 ff 3c
       -0.10206155 -0.037011955 0.026827162 0.031223716
000250 40 a3 be bd ae 32 f6 3c 64 ff a1 bd 1b d1 00 be
       -0.09308481 0.030053463 -0.0791004 -0.12579767
000260 30 f8 08 3e 9d 72 75 3e 98 bc 20 3e 0d bf bb 3d
       0.13375926 0.23969503 0.15696943 0.091672994
000270 e6 d0 80 be 62 62 27 3e 35 f5 10 3e d5 1b 99 3e
       -0.25159377 0.16346124 0.14156039 0.29904047
000280 33 5b d2 bd 5b b3 15 bd ce 5d 0a bd ce d4 cf be
       -0.10271301 -0.036548 -0.033780865 -0.40592045
000290 df 10 00 3e 6a 4c 9b bd 7d dc 6c 3e 3e a4 6f 3e
       0.12506436 -0.07582934 0.23130985 0.23402497
0002a0 96 06 22 bc 6a 42 ee 3b de 20 22 be 9e ed 34 3b
       -0.0098892655 0.0072711008 -0.1583285 0.0027607451
0002b0 02 e7 a5 bd 4d 81 c3 3d 33 68 17 be 37 5c 49 be
       -0.08100702 0.095461465 -0.14785843 -0.19664083
0002c0 89 5c 03 3e 8d 78 9e be 86 a9 6b bc d7 53 af bd
       0.12828268 -0.30951348 -0.014383679 -0.08560913
0002d0 0e 33 8e bd a3 50 08 3e 02 9b 7e bd 21 fd 6d 3c
       -0.06943332 0.1331201 -0.062159546 0.014525683
0002e0 34 8a fe bd 60 5c 72 3e 6b 7f 04 be 53 43 d7 bd
       -0.12428704 0.23668051 -0.12939231 -0.10510888
0002f0 fd 67 60 3d da 45 4b 3d 8e f9 ac bd 65 39 46 3d
       0.05478667 0.049627163 -0.08446036 0.04839458
000300 3b 7a 61 be 35 4e a8 be dd e8 9c bd c4 fa 7a 3d
       -0.22019283 -0.32872167 -0.07661603 0.061274305
000310 1c 47 b9 3c c0 5a 4f 3c 2e a3 ab 3d c0 ef 0d 3d
       0.022616915 0.012655914 0.083807334 0.03465247
000320 88 f8 72 be b4 93 a4 3d 58 e3 b1 bd ab 8c 9d be
       -0.2372762 0.08035985 -0.086859405 -0.30771384
000330 cf a5 2a be a3 6a 48 be be 5d 32 3e 01 2b 21 be
       -0.16664813 -0.19571929 0.17418572 -0.15739061
000340 75 bd 38 be f1 ae 2d 3e 2f a5 3a bd 0b b1 24 be
       -0.18041022 0.16961266 -0.045567688 -0.16083162
000350 9e 90 45 be 5f ad 1c be 30 c3 5e 3c 91 6e af 3e
       -0.19293448 -0.15300511 0.013596341 0.34264043
000360 89 2f 08 3e 8d 7f 11 be 6c c1 cc be 9b 68 32 be
       0.13299383 -0.14208813 -0.3999132 -0.17422716
000370 82 4a 9a 3c a2 be 64 3c c8 4a 38 be 35 52 0f 3d
       0.018834356 0.013961466 -0.17997277 0.034990508
000380 72 05 b7 be 4d d5 29 bd bc 92 65 be 1c 05 b4 3c
       -0.35746342 -0.041463185 -0.22419256 0.021975093
000390 89 53 c1 bd 03 15 c1 be 60 75 8d be 68 98 10 bf
       -0.09439761 -0.37711343 -0.27628613 -0.56482553
0003a0 d7 68 66 3e 85 fb 70 be 98 a1 04 bc 80 d2 3a be
       0.2250093 -0.23533447 -0.008095168 -0.18244362
0003b0 67 c3 93 be c8 0b 70 3c 0e fc 88 bd b4 27 9b 3e
       -0.28860018 0.014651246 -0.066887006 0.3030373
0003c0 80 c5 52 bf a6 d5 e2 3e 0b 79 91 3d d7 10 15 bf
       -0.8233261 0.44303626 0.07103165 -0.5822882
0003d0 0a 86 89 be 66 26 97 be df 17 f4 bc de 16 e4 3e
       -0.26860076 -0.29521483 -0.029796539 0.44548696
0003e0 01 3c 24 3e 46 26 20 bf b4 08 a4 be f4 75 83 be
       0.16038515 -0.625584 -0.3203789 -0.2567593
0003f0 30 fd 14 bd 18 03 20 bf 3d a4 d7 bd 65 e2 d3 be
       -0.03637427 -0.6250472 -0.10529373 -0.41383663

arith.constant2 f4 [36, 128]
000000 4f 4a 17 3e a2 48 f3 3c 9b fa ed bd 93 05 df 3d
       0.1477444 0.02969772 -0.11620065 0.10889735
000010 4c 49 2f 3d 32 90 93 be 60 90 2f be a1 62 1f be
       0.04279451 -0.2882095 -0.17144918 -0.15564968
000020 fd b8 48 3e e2 90 63 be c3 35 e1 bd b3 94 eb bd
       0.19601817 -0.22223237 -0.10996582 -0.115029715
000030 91 8c 01 be 85 e4 7e bc 9c c5 41 be f5 e4 e9 bd
       -0.12651278 -0.015557413 -0.18923038 -0.11420623
000040 60 5d a3 be be 85 e8 3c ec c7 3c be 65 37 2a bf
       -0.31907177 0.028384086 -0.18435639 -0.66490775
000050 f5 2a 1d 3e a6 61 b6 3d ab 02 25 be 38 6b 5d bf
       0.15348418 0.08905344 -0.16114299 -0.8649173
000060 07 80 f0 be 45 a1 ad bd 04 59 67 be eb 28 18 be
       -0.46972677 -0.08478025 -0.2259255 -0.14859359
000070 e8 03 be be bd 15 2d bf 04 20 c4 be e8 97 11 3e
       -0.37112355 -0.67611295 -0.38305676 0.14218104
000080 55 9c a6 be f8 e5 9e bb 94 6f 3e bf 3c f4 40 bd
       -0.32541147 -0.0048491918 -0.74389005 -0.04710792
000090 79 46 03 3e 5b 28 6f 3d 15 cd 14 3e a1 75 bc 3d
       0.12819852 0.058388095 0.14531358 0.092021234
0000a0 f1 c6 36 3e 99 fa 22 3e 7e 4f e2 be 7a 35 92 be
       0.17849328 0.15915908 -0.44201273 -0.28556424
0000b0 60 0c ba be c1 95 b2 3d ed 00 d5 bd 27 fc c5 be
       -0.36337566 0.087199695 -0.10400567 -0.3866894
0000c0 f9 cd bc be 73 6c 9d 3d 69 6f 4e bf 34 fe 83 be
       -0.36875895 0.07686701 -0.8063875 -0.2577988
0000d0 d5 3a 10 be e8 ee 59 bf 38 cc 21 3e 52 06 30 be
       -0.14084943 -0.85130167 0.1580056 -0.17189911
0000e0 58 13 15 bf ff b8 81 3c 0b de aa bc f6 dc 1a 3e
       -0.5823264 0.015835283 -0.020857831 0.15123352
0000f0 8d 7e 08 3d 6b ec 1e 3d 2c 68 07 3e 06 04 bc ba
       0.033323813 0.038799684 0.13223332 -0.0014344461
000100 99 ef b2 3d 6b 06 28 3e 2f 96 0f bf 69 f6 80 bd
       0.08737106 0.16408698 -0.56088537 -0.06296999
000110 cd 06 de be 38 53 2b 3c c1 65 54 3c 3b e5 8e bd
       -0.43364564 0.010456853 0.012963713 -0.06977316
000120 da 4e 25 3e b7 f3 02 3e a5 6b 6b 3c 63 d3 31 bd
       0.1614336 0.12788282 0.014368926 -0.043414485
000130 6b e4 22 3e 5d 5c d3 bd 9a 25 4a 3e aa de 57 bf
       0.15907447 -0.10320351 0.19740906 -0.84324133
000140 21 93 2e 3b 1e 45 a8 3d 41 f0 20 3d b2 a6 48 bf
       0.0026637989 0.08216308 0.039291624 -0.78379357
000150 23 08 07 3e 25 ea bb bc 54 76 3a bf 13 ba 2f 3e
       0.13186698 -0.022938797 -0.72836804 0.17160825
000160 f4 d7 e9 be f2 21 8d bd 63 af d3 be 16 8c 40 3e
       -0.45672572 -0.0689124 -0.41344747 0.18803439
000170 ae cb d4 be fa cf 10 be a1 eb d6 bd 46 97 f4 be
       -0.41561645 -0.14141837 -0.104941614 -0.47771662
000180 8f 91 d3 bc 86 55 e8 bd 88 e4 b4 3c 64 05 1f be
       -0.025826244 -0.11344437 0.022081628 -0.155294
000190 dd 59 3e 3d ac 7a f3 bd 02 3c c7 bd 18 fc 1c be
       0.04647242 -0.11888632 -0.097282425 -0.15330541
0001a0 dd 70 26 be 7a c2 82 bd fb c5 a3 be c4 c3 36 bf
       -0.16253991 -0.0638475 -0.31986985 -0.71392465
0001b0 53 de 47 bf 70 bf ca be 3c 6e e4 be 83 fa 62 bc
       -0.78073615 -0.3959918 -0.44615352 -0.013853672
0001c0 df ae 05 3e cd 89 fa bd 11 b6 05 be e4 d3 26 3e
       0.1305499 -0.12233315 -0.13057734 0.16291767
0001d0 1d aa 48 bf bb d3 bd bd d9 17 22 3e 98 e0 f6 be
       -0.7838457 -0.092689 0.1582941 -0.48218226
0001e0 1e a8 19 bf 83 1e c7 3d bb ef 44 3b 21 c1 f2 bb
       -0.6002215 0.097226165 0.0030050117 -0.0074082767
0001f0 04 e8 dd be 03 d9 3c be 0c d0 21 be a0 cb af bd
       -0.43341076 -0.18442158 -0.1580202 -0.0858376
000200 3d 67 cf be 73 f7 04 bf 8b bc 85 3e 8b 7b 06 3d
       -0.40508452 -0.5194008 0.2612041 0.032832664
000210 05 6a 19 be ef 36 10 3e 25 98 0e bd 9a 43 8a bd
       -0.1498185 0.14083456 -0.034813065 -0.06751175
000220 81 37 ec be 34 5b 38 3e 3f aa 99 be 3d c8 39 be
       -0.46136096 0.18003541 -0.300127 -0.18142791
000230 c5 f5 fc 3d d8 1f 00 3e 71 44 2d 3c bb 34 1f be
       0.12351564 0.12512147 0.0105754 -0.15547459
000240 e7 c2 ff 3d 5b 76 84 3d f6 6b 8c be 34 4d ca be
       0.124883465 0.06467887 -0.27426118 -0.39512026
000250 88 f9 be be ec 3f b6 bd f7 94 c3 3d 79 05 8e be
       -0.37299752 -0.08898911 0.09549897 -0.2773855
000260 3c 5d ca be 39 26 1e be f9 03 ef bd 2a 44 b1 bd
       -0.39524257 -0.15444268 -0.116706796 -0.086555794
000270 4a 0b 06 3e 37 59 10 3e a1 43 9e bd 6a 46 97 3c
       0.13090244 0.14096533 -0.07727743 0.018466193
000280 f8 07 18 3e b4 0e 14 3e 18 d6 bb be 5a 57 8f 3d
       0.1484679 0.14458734 -0.36686778 0.06999083
000290 b0 25 e9 be a2 21 14 bc 0d 90 1b bf 66 c9 89 bd
       -0.45536566 -0.009041222 -0.6076668 -0.06727867
0002a0 9d ed 91 3d a5 1e 37 bc 77 69 8c be 20 60 27 be
       0.07125399 -0.01117674 -0.27424213 -0.16345263
0002b0 ac 95 d3 be ab b9 04 3e a6 4f c9 3d 63 ad 58 be
       -0.41325128 0.12961452 0.09829645 -0.21159892
0002c0 16 a0 d2 3d fb d6 15 3e d2 2a 09 bf b3 37 12 bf
       0.1028444 0.1463279 -0.53580964 -0.5711624
0002d0 6c 6e fe be 5a a1 b9 3b a1 4a b7 be c7 22 68 be
       -0.4969362 0.0056649866 -0.35799125 -0.22669517
0002e0 be 16 ce bd ab 90 21 be 23 f6 02 bf 09 4f c0 bd
       -0.100629315 -0.15777843 -0.51156825 -0.09390075
0002f0 ef 2b ec be d9 25 b8 be 00 53 82 be 41 ae cc 3d
       -0.4612727 -0.35966375 -0.2545395 0.09994174
000300 6d 3b 77 bd 9d c2 0a be 1f e5 3a 3e 1d f8 26 3e
       -0.060359407 -0.13550802 0.18251465 0.16305585
000310 ed 28 03 bf 51 53 f8 3b a0 16 94 bc 20 c5 09 3e
       -0.5123432 0.0075782915 -0.018077195 0.13454103
000320 0a ad 1d 3d af 49 8e be cf 84 86 3d 92 4e 97 bd
       0.0384951 -0.2779059 0.065683 -0.07388033
000330 7f 8e a5 be 66 b4 0b be 6b 3a a5 bd cd 28 11 3e
       -0.32335278 -0.13643035 -0.08067783 0.1417572
000340 02 42 34 bc 5f 7e 05 3e 0d 9e 00 be 46 72 e0 be
       -0.011002066 0.13036488 -0.12560292 -0.43837184
000350 d4 e1 9b bd ba 3a 02 3e e5 dc f2 3d 03 d8 6d bc
       -0.07611433 0.12717715 0.118585385 -0.014516833
000360 a1 17 2d be 85 7b 34 3e 70 94 0c bf 15 51 54 be
       -0.16903545 0.17625244 -0.54914 -0.20734055
000370 bc 58 0c 3d c0 4a ce 3c 89 49 3b be 2d 0e 3f bd
       0.03426431 0.025182128 -0.1828977 -0.04664438
000380 f6 ed a5 be 13 24 26 be 8e d1 19 be 66 a9 cf bd
       -0.32408112 -0.16224699 -0.15021345 -0.10139732
000390 56 30 78 3d f4 4a 94 be 1c 69 b5 be 98 a7 3d be
       0.06059297 -0.28963435 -0.35431755 -0.18520963
0003a0 8a cd 34 3d 36 9a 13 3e af f6 74 3e cd 87 4f 3e
       0.04414133 0.14414296 0.23922227 0.20266648
0003b0 97 ec 76 be 2a f2 d1 bd f5 dc 60 be e9 94 04 be
       -0.2411369 -0.10251267 -0.21959288 -0.1294743
0003c0 b0 c6 53 3e f4 73 01 be ed 12 2d be ec b4 90 be
       0.20681262 -0.12641889 -0.16901751 -0.28263032
0003d0 fc 12 55 3d 7b 7f 2b 3c be ac 01 bf 5d 7c e3 be
       0.052020058 0.010467405 -0.5065421 -0.4443082
0003e0 26 ab c3 be 1c b7 6b be b7 7a 4f be 78 05 ce 3d
       -0.38216513 -0.2301907 -0.20261656 0.10059637
0003f0 52 b1 c2 be f0 92 4d be 9e 19 1a 3d 76 2b 0f be
       -0.3802591 -0.20075583 0.037622087 -0.13981423

arith.constant3 f4 [128, 1600]
000000 37 89 ec 3c 27 e6 e1 3d de 56 44 3e c3 17 23 3e
       0.028874023 0.11030226 0.19173762 0.15927033
000010 ca 60 f9 bc 34 8e 60 3e 3a 17 40 3e 27 2c ff 3d
       -0.03044166 0.21929246 0.1875886 0.12459593
000020 49 50 b8 bd 5c 85 e2 3d 61 ab b0 3d 4b a5 03 3e
       -0.08999688 0.110605925 0.08626438 0.12856023
000030 81 77 02 3e 72 89 bf 3c 9b 5b 24 bd b5 bf 78 bd
       0.127409 0.023380969 -0.040126424 -0.0607297
000040 d7 36 66 bd 38 e7 03 3d 81 78 5b 3e 02 3f e3 3c
       -0.056204643 0.03220293 0.21432687 0.027740005
000050 62 0a 62 3d 3c 2e ab 3d 73 c1 39 3e 88 b7 96 3d
       0.055185683 0.08358428 0.18140201 0.073592246
000060 e5 9e 16 be b9 f7 c2 3d a6 e0 04 be c0 b8 90 bd
       -0.14709051 0.095199056 -0.12976322 -0.07066488
000070 a8 13 19 be 6f 0f aa bd 38 a7 5c bd bb 0a e6 bc
       -0.14948905 -0.08303725 -0.05387041 -0.028081289
000080 d4 89 ce 3d 3e 5a ef 3d 48 2a ae 3d fe bb f3 3d
       0.100848824 0.11687134 0.08504158 0.11901091
000090 cb c0 29 be 13 4b 8f 3e a3 5b 78 3c 86 0d 77 3c
       -0.16577451 0.27986965 0.015158567 0.015078908
0000a0 9d a6 53 3d 4a 7b 23 bc 8a 95 03 be 9d 79 7c 3c
       0.051672567 -0.009978125 -0.12850013 0.015409854
0000b0 d9 c0 83 bd 61 a1 ff bc 06 19 0b 3d 14 8a 5e 3d
       -0.06433267 -0.031204881 0.03395941 0.0543309
0000c0 40 e5 15 3e 61 67 bd 3d d7 9f 04 be 5c 05 8e 3e
       0.14638233 0.092482336 -0.12951599 0.27738464
0000d0 e2 ff be 3d 6b 64 07 be d5 fb 08 3c 81 48 71 3d
       0.093261495 -0.132219 0.008360823 0.058907036
0000e0 73 f1 56 3d 3f c1 89 bd 92 0b f9 3d 1c ef 27 be
       0.052476358 -0.06726312 0.1216041 -0.16399807
0000f0 95 76 0a 3e b6 ba a0 bd e5 2d c9 3d f1 f6 bb bc
       0.13521798 -0.07848112 0.09823207 -0.0229449
000100 8c 88 16 be 10 25 63 bd a1 30 b3 3d 81 45 23 3e
       -0.14700526 -0.055455267 0.087495096 0.15944482
000110 dd 66 8c be a3 2f b7 bd 5f 81 f8 3d 4c 67 2a 3e
       -0.27422228 -0.08944633 0.121340506 0.16640967
000120 6f 8c c1 bc 5e a3 27 3e 1c 0d 59 3d 09 1b ae 3e
       -0.023626534 0.16370913 0.052991018 0.34005
000130 9c 88 a1 be 88 a2 86 3d d5 ce 56 3d 3e f8 01 be
       -0.31549537 0.06573969 0.052443344 -0.12692353
000140 29 3a cf bd 08 5a 27 3d 1f 75 c0 3b 8a 08 0c bd
       -0.10118515 0.040857345 0.005873337 -0.03418783
000150 a0 6d 66 3d 8d fa 3a 3e 50 ae 92 3d 1c 79 0c 3e
       0.05625689 0.1825964 0.07162154 0.13718075
000160 82 a6 1d 3e 32 d2 f8 3d 16 00 69 3d 00 15 36 bd
       0.15395549 0.121494666 0.056884848 -0.04445362
000170 6d f3 46 3e db ab 30 be 8f 98 a0 bb 6d f5 15 3c
       0.19428797 -0.17253058 -0.004900999 0.009152752
000180 a6 1d 2d 3b 92 5e aa 3d 9f 83 06 bc 78 96 82 be
       0.0026415377 0.08318819 -0.008210092 -0.25505424
000190 2b 03 19 bd 06 7e 23 be 47 34 05 be 64 41 eb bd
       -0.037356537 -0.15966043 -0.13008223 -0.11487082
0001a0 d1 82 03 3c ba 63 28 3b b0 31 d6 bd fb ac bb 3c
       0.0080267945 0.0025694207 -0.10458696 0.022909632
0001b0 a6 10 54 bd 59 5a 65 3d b2 4b 9e 3c 82 6e 79 bd
       -0.05177369 0.055994365 0.019323204 -0.060896404
0001c0 27 cd 96 bd ed 0c 43 bd 2b 20 86 3c 7b 9f ae bd
       -0.073633485 -0.04761975 0.01637276 -0.08526512
0001d0 a4 c2 c3 bb 1f 5b e6 bd ab ea d0 3c 15 af 3f 3e
       -0.0059741307 -0.11247849 0.025502523 0.18719132
0001e0 61 86 bc be ff 14 06 be 47 e0 47 bd dd ec ee bd
       -0.36821273 -0.13093947 -0.048797872 -0.11666272
0001f0 99 2f 27 3e d8 11 30 3d e7 e3 71 be eb c9 b3 bd
       0.16326751 0.042985767 -0.23622094 -0.08778747
000200 f6 e7 8c bc cc 72 76 3c da d8 c3 3d d2 b4 f0 3d
       -0.017200451 0.015042018 0.095628455 0.11753239
000210 c5 98 83 bc 18 b4 13 3b 5f 30 3e bd 21 b5 d7 bd
       -0.016064057 0.0022537764 -0.04643285 -0.105325945
000220 37 de 34 bd db 0a 7f bd 38 05 3b bc da 7a 91 bd
       -0.044157233 -0.062266212 -0.0114148185 -0.0710351
000230 89 24 05 be 7f 82 0a bd f0 69 bb bc 65 79 da 3d
       -0.13002218 -0.033815857 -0.022877663 0.106676854
000240 71 26 1c bc 12 70 85 3d d9 33 fb 3a 06 c9 5a be
       -0.0095306495 0.06515516 0.0019165232 -0.21365747
000250 03 6a f0 3c 11 33 d3 bd 5f 3d 7b 3d e4 bb f0 bd
       0.029347425 -0.103124745 0.061337825 -0.11754587
000260 24 62 49 3d b7 bb d0 bc 42 81 e0 bd 40 cc 1b ba
       0.04916586 -0.025480134 -0.10962154 -0.00059432164
000270 28 5d c8 3d fe 5a 2e 3d 6d 50 da bc f1 ed 83 be
       0.09783393 0.042567246 -0.026649678 -0.25767472
000280 86 cc e6 ba 78 54 4d bd e6 2a 34 3c 71 0b 22 bd
       -0.001760856 -0.050129384 0.010996556 -0.039561693
000290 30 20 e7 3d 41 64 b4 bd 22 01 42 bd 59 11 07 3e
       0.11285436 -0.088081844 -0.04736436 0.13190211
0002a0 5a dc b2 3d 3d f9 a6 bd 6b e9 49 be c9 50 b0 3b
       0.08733435 -0.08153007 -0.19717948 0.005380724
0002b0 0c ad 06 be 62 48 d6 bd d8 22 50 3d 73 88 ae bd
       -0.1315195 -0.10463025 0.05081448 -0.085221194
0002c0 39 a8 08 be 22 88 c3 3d 61 2d e7 3d 54 67 fb bd
       -0.13345422 0.0954745 0.11287952 -0.12275568
0002d0 9a 0c 48 be 69 6c 36 be 8a 89 f2 bd 87 fa ff 3c
       -0.19536057 -0.17814793 -0.1184264 0.03124739
0002e0 2f c9 b2 bc 28 ee 10 be 41 e8 12 bd 5d 66 8f 3d
       -0.021824447 -0.1415335 -0.035866026 0.07001946
0002f0 fb 22 dc 3d 77 4a 9c bd 36 5a 58 be 00 fb b7 3d
       0.107488595 -0.076313905 -0.21128163 0.08983421
000300 81 16 a4 3c 7e 4c b4 bd 71 3f 8d 3d 8e 7f 48 bd
       0.020030262 -0.08803652 0.06896866 -0.04894977
000310 71 9b 21 be ad 47 a8 bd 0a 17 e5 3d bf df f5 bd
       -0.15781952 -0.08216796 0.11186035 -0.12005567
000320 cd 89 14 be dc ad 1f bd c3 69 1e 3e 97 ed 1b be
       -0.14505692 -0.038984165 0.15470032 -0.15227352
000330 74 7f 14 be b0 7f a4 3d 70 fc d7 bd 90 85 0c be
       -0.14501745 0.08032167 -0.105461955 -0.13722825
000340 30 b6 6a 3d 36 b2 27 3e 32 90 d3 bd a1 ef 4f 3d
       0.057302654 0.16376576 -0.103302374 0.050765637
000350 38 c0 45 be 24 f5 1a be 7a 20 00 3e 37 e8 b6 3d
       -0.19311607 -0.15132576 0.12512389 0.0893101
000360 32 8b 2c 3d 68 9d 4e 3d 5d d3 94 3d d5 7b 20 3e
       0.042124934 0.050443083 0.07266877 0.15672238
000370 71 a2 e6 3d 6e 31 b1 bc 9d 96 3f bd 38 34 8f bc
       0.11261452 -0.021630015 -0.046774495 -0.017480955
000380 2f 23 8e 3d 8b 7e b9 3d 68 65 03 be b3 9f 75 be
       0.069403045 0.09057339 -0.12831652 -0.23986702
000390 be 80 d5 bc 92 0e d4 bc 24 ef c7 bd 26 c5 5c be
       -0.026062366 -0.025885854 -0.09762409 -0.21559581
0003a0 95 51 50 3d a2 bb 74 bb 2f c4 14 be 5d 30 f8 3c
       0.050859053 -0.0037343283 -0.14527963 0.030296499
0003b0 c0 88 34 3d ca b1 11 bd de 55 c7 3d 8a 7e fc bd
       0.044075727 -0.035569943 0.09733175 -0.12328823
0003c0 b3 a3 4d 3e 75 d2 b4 bd 41 1b c5 bd 12 6c 06 be
       0.20081978 -0.08829204 -0.09624339 -0.13127163
0003d0 7e 26 49 be c1 4e 72 3d b4 30 53 bb 5d 1e d0 bd
       -0.1964359 0.059157137 -0.0032225074 -0.10162041
0003e0 35 62 0c bd 94 e8 45 be 44 e0 e4 ba 6e 16 a4 3d
       -0.034273345 -0.19327003 -0.0017461856 0.080120906
0003f0 33 d6 a8 bd a1 62 6c be cc ef a0 3d 8f a2 67 3d
       -0.0824398 -0.23084499 0.078582376 0.056551512

arith.constant4 f4 [36]
000000 e5 03 79 bc cb f4 6e bd 45 24 04 bf 55 d5 87 be
       -0.015198682 -0.05833892 -0.5161784 -0.26529947
000010 0f d5 4a be c7 bb 9f be 87 03 5a bf d9 b2 29 bf
       -0.19807838 -0.3119795 -0.8516163 -0.66288525
000020 ac ef 0e 3e 19 58 75 be 5c 19 ca 3d 1f 5b b7 3e
       0.13958615 -0.23959388 0.09868118 0.35811707
000030 8c 3c 93 be 82 ea e6 3d 3d b1 97 3d 9b 97 4e 3b
       -0.2875713 0.112751976 0.074068524 0.003152347
000040 ef 61 16 3e bb 8a b5 3e cf 9d 64 3e 75 37 a0 be
       0.14685796 0.35457405 0.22325824 -0.3129231
000050 a2 0f be bd 88 74 b5 3d 9e 87 fa 3b 47 51 0d 3e
       -0.092803255 0.08860117 0.0076455614 0.13800536
000060 12 b6 79 3e 9e 41 7c be 29 48 ec 3d 78 a4 33 bd
       0.2438586 -0.24634406 0.11537201 -0.04385802
000070 14 3e 9c 3e 43 c0 1e 3d 11 45 ab 3d 3e a6 03 be
       0.30516112 0.038757574 0.08362783 -0.12856385
000080 8f 64 9e 3c 5c 98 01 3f b7 13 7a bd 67 22 21 3d
       0.01933506 0.50623107 -0.061053958 0.03933945

arith.constant5 f4 [128]
000000 d6 c3 70 3e 20 4e 48 bd 15 64 e6 3d 98 7d 9a bc
       0.23512205 -0.04890263 0.11249558 -0.018858716
000010 f3 c8 81 bd f2 9b ae 3c fd 30 04 bd cd 9f 93 bc
       -0.06337156 0.021314595 -0.03227328 -0.018020535
000020 e8 66 d4 3c ba d2 95 3a 26 85 23 bc 9c c6 55 3d
       0.025927976 0.0011430599 -0.0099804755 0.05219136
000030 0c bc 30 bd 35 ec 38 bd fb 87 2f bc d5 c0 85 3b
       -0.043148085 -0.04514714 -0.010713573 0.0040818253
000040 36 a6 cf 3c c4 53 3c 3d bc dd 8e 3e cf ce a5 bd
       0.02534781 0.045978323 0.27903545 -0.08096086
000050 df 0f 4c 3e 3c 50 86 bc a1 b3 de bb 10 df d1 3d
       0.1992793 -0.01639568 -0.006796316 0.10247624
000060 50 a8 07 3e c2 b6 af bc d3 b0 80 3c 73 31 27 bc
       0.132478 -0.02144945 0.015709316 -0.010204661
000070 ed 5c a4 3d 49 4d d6 3d da c8 bd 3d b6 f4 8e bc
       0.08025537 0.1046396 0.09266825 -0.017450672
000080 ab 87 4d 3d 82 1d 24 bd 31 ce 94 3c 4a 34 00 3d
       0.05017821 -0.040067203 0.018164726 0.031299867
000090 7f 92 d3 3d 5c f5 10 bc 31 8b 54 3e 7b 89 1a bd
       0.10330676 -0.008847561 0.20756222 -0.037728768
0000a0 9c 96 c0 bc 5e 67 99 bc 7f 90 46 3d 51 90 a3 bc
       -0.023509316 -0.018726047 0.048477646 -0.019966276
0000b0 f3 d4 23 3e c0 0e 85 3e 5b 70 07 bd 09 4a 84 bd
       0.15999202 0.25987816 -0.033066135 -0.064594336
0000c0 14 4e 05 3e f0 ef 2d 3d 4c 9d 74 3d bf 5e 33 3e
       0.13018066 0.04246515 0.059720322 0.17516612
0000d0 f2 64 8e bc fa 47 58 3e a8 d4 d8 3d ba da 62 bc
       -0.017382119 0.21121207 0.10587436 -0.013846094
0000e0 6f 29 5b 3e 7a ba 32 3e c0 c6 83 3d b3 63 8c bc
       0.21402524 0.17453948 0.06434393 -0.017137384
0000f0 a5 69 b7 3d 90 d9 a5 3d ca 87 29 3e 0b 5c e8 bc
       0.08955697 0.080981374 0.16555706 -0.028364202
000100 f5 55 dd bc 15 ce b6 bc f4 43 98 3a 88 c1 e4 3d
       -0.027018527 -0.022315064 0.0011616931 0.11169726
000110 fa 9e a0 3e 30 d7 a1 bc 24 ea d9 bb a8 8c 59 bd
       0.3137129 -0.01975593 -0.006650226 -0.053112656
000120 51 4d b8 bb fe 5f 4b 3e 09 58 73 3d 29 34 48 bd
       -0.005624451 0.19860837 0.05941013 -0.04887787
000130 78 4b b3 3d c1 3b 4b bc f2 03 d0 3d 72 6e c6 3d
       0.08754629 -0.012404383 0.101570025 0.096890345
000140 aa d2 52 bc 09 f0 12 bc 70 e2 51 3d 50 c6 7b 3d
       -0.012867609 -0.008968362 0.05124134 0.061468422
000150 17 6a 17 bc ab 78 4a 3e 69 1f 16 bd 06 c9 89 bc
       -0.009241602 0.19772594 -0.03665105 -0.016819488
000160 19 80 b7 3d 0b fb c3 3c 7f 05 c5 3d 69 31 0e 3e
       0.089599796 0.023923418 0.09620189 0.13886036
000170 0d 45 fc 3d a1 2b 3d bd c9 e3 0e bb 0a 15 f7 3d
       0.12317858 -0.046184186 -0.002180325 0.1206456
000180 a9 30 e1 3a a1 c5 e6 bc c8 3a 1b bd 3d 3d ab bc
       0.001718064 -0.028170409 -0.037897855 -0.020903224
000190 c3 db 06 3e 8b df ed 3d 94 1f 81 3c 56 63 67 bc
       0.1316977 0.11614903 0.015762128 -0.014122805
0001a0 8a 49 d8 bc 3c 58 81 3d 03 41 2a bc 37 4d ba 3d
       -0.026402254 0.063156575 -0.010391477 0.09096759
0001b0 65 dc 7b 3b 33 10 b0 3d df 5f a2 3d 5f 08 25 bc
       0.0038430926 0.0859684 0.07928442 -0.010072797
0001c0 a8 19 92 bd 50 5d 6e 3d 1b 85 90 bc 7b 9b ae 3d
       -0.071338 0.05819446 -0.017641595 0.08525749
0001d0 e1 4d e6 3d e5 75 e4 bc 5d 5b 69 3d 19 3d 34 3e
       0.11245323 -0.027888248 0.056971896 0.17601432
0001e0 bc 15 2a 3e dc e0 6e 3d 53 47 b6 bc f7 2b 18 bc
       0.16609854 0.05831991 -0.022250807 -0.009287826
0001f0 98 0f 99 3d df 03 41 bc 33 4d d4 bc 0b 8f 2e bd
       0.074736774 -0.011780708 -0.025915718 -0.042616885

sequential_2_1/conv2d_2_1/convolution f4 [32, 3, 3, 1]
000000 e9 fa 76 3d 9c e0 14 3d c0 2b 8b 3d 31 a3 4e bd
       0.06029788 0.036347017 0.06795454 -0.0504486
000010 26 2f 4c 3e 7c 97 9f bd 76 d4 4e bd b6 3e 10 3e
       0.1993986 -0.07792565 -0.050495587 0.14086422
000020 3f 52 eb 3d 40 ea 45 3c 29 fa 37 bc 78 66 9f 3c
       0.114902966 0.012079775 -0.011229076 0.01945804
000030 9e 07 20 be 6d 2c 5d 3e a1 78 d7 3d 3e ac e4 be
       -0.15627906 0.21598978 0.10521055 -0.4466266
000040 9e 88 02 3e c8 85 2a be b5 d6 db be 80 e8 b0 be
       0.12747428 -0.16652596 -0.42937246 -0.34552383
000050 de 3c 8f bd a3 07 cd 3c 61 a9 82 3e ad c7 9e 3d
       -0.06994031 0.025028056 0.2551985 0.07752929
000060 1c 3c 7a 3e 15 9e 64 3e 75 06 b8 3d 7a 60 a3 bd
       0.24436992 0.22325929 0.089856066 -0.07977386
000070 57 ab a6 be 19 12 a1 be 4e 44 92 3d 80 14 81 3d
       -0.32552597 -0.3145912 0.07141934 0.06302738
000080 40 7f 46 be 74 03 85 be 57 51 47 3f 4b 21 0a bf
       -0.1938448 -0.25979197 0.7785849 -0.5395705
000090 a7 85 85 be 60 11 b5 bc e0 89 64 be d4 a4 84 3e
       -0.2607853 -0.022103012 -0.2231822 0.25907004
0000a0 27 e5 10 3f 49 7a 91 3e b1 a2 bb be 8c 64 af be
       0.5659966 0.2841361 -0.3664756 -0.342564
0000b0 2a a5 d1 be 77 42 52 be a9 c0 82 3b ab 71 0e be
       -0.40946323 -0.20533167 0.003990252 -0.13910548
0000c0 f8 d7 31 be d3 63 0d 3d cc 96 c7 ba 61 04 1e 3d
       -0.17367542 0.034519028 -0.0015227436 0.038578395
0000d0 6e 87 ba bc da 84 9a bc fe 9f 96 3c 7b b9 76 3e
       -0.022769656 -0.018862177 0.018386837 0.24094193
0000e0 90 dd a9 be 31 3f 9d 3e b2 b8 78 bd 4d 57 88 be
       -0.3317685 0.30712274 -0.060723014 -0.26629105
0000f0 1d 1c 57 3d 40 b3 37 bd b1 6e b2 bb 17 19 51 3e
       0.052517045 -0.04484868 -0.0054453244 0.20419727
000100 af ab 76 3e dd a7 ab be 90 ee b4 3e 3c d0 e5 3d
       0.2408893 -0.33526507 0.3533826 0.11221358
000110 a3 0d 0b bf 1d d2 79 be 37 b9 8b be af 21 02 bf
       -0.54317683 -0.24396558 -0.27289745 -0.5083265
000120 09 a0 38 3e b0 fe e0 3e fa 30 91 3e d4 29 8b be
       0.18029799 0.4394431 0.2835768 -0.2718035
000130 5d 18 6c 3c c9 93 cb 3d 62 fd ac be 16 5a a2 be
       0.0144101055 0.09940297 -0.33787066 -0.31709355
000140 e7 64 26 be ca 0d 7b 3e f5 de 22 bd 8c f2 8c be
       -0.16249429 0.24516979 -0.03976341 -0.275288
000150 a3 e3 be 3e 71 9a 5e 3c 07 f9 f4 be c1 3a 74 3e
       0.37283048 0.013586626 -0.47846243 0.23850538
000160 ca 53 a6 3d 59 a2 9f be 39 21 09 be 60 3e 73 3e
       0.0812145 -0.3117855 -0.1339158 0.23754263
000170 45 dc b5 3e 1c 4d f0 be ce c8 34 be d4 eb f8 3e
       0.35519615 -0.4693383 -0.17654726 0.48617423
000180 ba 9c d2 be 2c 83 75 be 2a 7e 1d 3e c6 7d bd 3e
       -0.41135198 -0.2397582 0.15380159 0.3701002
000190 0f 68 e8 3e 80 e4 e9 3d bc 60 d1 3d 58 a0 a5 bd
       0.4539189 0.11420536 0.10223529 -0.08087224
0001a0 3e 41 89 be 5e 25 ad be 57 c0 0b bf 30 0a c0 3d
       -0.26807588 -0.3381757 -0.5459036 0.09376943
0001b0 ca f8 e2 3c 3a c6 a3 3c b8 9b 5e bc d2 33 f9 3c
       0.027706522 0.019991983 -0.013586931 0.030420218
0001c0 bc 96 67 3c 7b 85 9a 3c b0 36 1f ba 7d 3f ec 3b
       0.014135059 0.018862477 -0.0006073518 0.007209717
0001d0 18 d9 ad bb fb a2 d5 3d 22 ea 88 3e f5 ab f7 3e
       -0.0053054206 0.10431477 0.2674113 0.4837338
0001e0 6e d3 95 3e e0 d8 39 3e 4a b5 8d bd 5c 99 a9 be
       0.2926287 0.18149137 -0.06919344 -0.33124816
0001f0 24 6c 02 bf e9 2c f4 be 22 2d 34 be ad 53 b3 be
       -0.5094626 -0.47690514 -0.17595342 -0.35024777
000200 f7 2a 8b be 2e 94 92 be 21 82 a0 be fa d7 c1 bd
       -0.27181217 -0.28628677 -0.3134928 -0.094650224
000210 7d 9d 51 3e 78 e0 a1 3e c3 82 a3 3e 27 4c 97 3d
       0.20470233 0.3161657 0.319357 0.07387572
000220 50 e2 82 3e 46 8a 68 3e bf 1f 92 be eb ca 13 3e
       0.25563288 0.22708997 -0.28539845 0.14432876
000230 77 54 fa 3e 4c a0 03 bf 44 74 ea be 67 43 84 bd
       0.48892567 -0.5141647 -0.4579183 -0.064581685
000240 0b 70 21 3f 03 25 ed be f0 1f e4 be aa 1f 1a bf
       0.6306159 -0.463173 -0.44555616 -0.60204566
000250 d2 e6 58 bf 47 62 e3 3c cc cd eb bd b5 32 38 3e
       -0.84727204 0.027756823 -0.11513862 0.17988093
000260 44 6a 0a 3f f6 e3 92 be af 26 07 bf c7 5c d9 be
       0.540684 -0.28689545 -0.527934 -0.42453596
000270 96 a7 d6 bb 89 cd 98 3d dc fe 21 be cd bd bc 3e
       -0.0065507395 0.07461078 -0.15819877 0.36863557
000280 cc 26 e9 3e 77 4f cc 3e f1 9f 89 3e cd b3 2d bd
       0.45537412 0.39904377 0.26879838 -0.0424078
000290 18 9f dc 3e fe e0 9f bd 1d 6d e1 be f5 3c ab be
       0.4309013 -0.07806586 -0.4402856 -0.33444944
0002a0 e3 9f 02 3e 6a 94 08 be 9d 0e 0c bf ba 8c 07 3e
       0.12756304 -0.13337865 -0.547098 0.13237277
0002b0 dc 94 90 be 33 4e 0a 3d ff 42 cb be 93 60 68 be
       -0.2823857 0.033765983 -0.3969955 -0.2269309
0002c0 0b 21 d9 3e da 6b 67 be 29 e1 96 3d 44 6a c7 3e
       0.42408022 -0.22599736 0.07367165 0.38948262
0002d0 a2 eb cb 3d c5 43 0b 3e d6 47 3f bc 48 b1 11 3d
       0.09957053 0.13600071 -0.011674842 0.03556946
0002e0 a2 ec 3b 3d 42 46 83 3d 6c 2b 21 3d d2 9b c8 3d
       0.045879968 0.06409885 0.03934805 0.09795345
0002f0 58 01 41 3e 9f b5 a5 be e1 65 8b 3e 85 ee 08 3e
       0.18848169 -0.32365128 0.27226165 0.13372238
000300 66 a8 03 3d 4d 40 06 3f 2d 3f 31 be a3 0d 6f 3c
       0.03214302 0.52441865 -0.17309256 0.014590654
000310 d0 0b 8b 3c 6a 7e 3d bf 09 60 12 be f8 3b a3 bc
       0.016973406 -0.7402102 -0.14294447 -0.019926056
000320 5a 76 ec be 9c 22 3d 3d cf 06 2c 3e 87 0b 1c be
       -0.46184045 0.046175584 0.16799472 -0.15238772
000330 24 a5 01 be 89 f5 ba 3e 2c 3f 6e bd c8 44 96 bd
       -0.12660652 0.36515453 -0.058165714 -0.07337338
000340 bb a1 1c be ea 00 c5 be 35 24 4b 3e 5c 8d 4f 3d
       -0.1529607 -0.3847726 0.1983803 0.05067192
000350 4b 15 30 bf 18 24 b6 3e 7f 90 e5 3e ca c5 06 be
       -0.6878249 0.35574412 0.44836804 -0.13161388
000360 59 c8 3a be 01 b1 94 be bc 7d c8 be aa b9 bd 3e
       -0.18240489 -0.29041293 -0.39158428 0.37055713
000370 47 d1 57 3e 40 a6 60 bd 88 f1 13 3d c2 50 fa 3c
       0.21075927 -0.05484605 0.036119014 0.030556086
000380 08 2b 3b 3e ab 74 17 bf 47 bd e4 be 74 3e cf bd
       0.18278134 -0.59162396 -0.44675657 -0.10119334
000390 15 67 84 be 57 97 01 3e ae 72 8d 3e 70 61 fa 3d
       -0.25859895 0.12655388 0.27626556 0.12225616
0003a0 c4 9b c7 3e 8b 29 a2 3e 98 e1 86 be e4 f0 13 3e
       0.38986027 0.3167232 -0.2634399 0.14447361
0003b0 43 3a 81 bd 59 59 7a be ff 30 51 3e 83 01 60 3e
       -0.06309941 -0.24448146 0.20428847 0.21875577
0003c0 23 04 f2 be 63 d6 50 bd e6 f8 db 3e 22 00 b9 be
       -0.4726878 -0.050985705 0.42963332 -0.36132914
0003d0 64 23 14 bd 98 de 8c be f5 de 1e bd 14 8d 4d 3e
       -0.036166564 -0.27513576 -0.038786847 0.20073348
0003e0 7a 09 ca 3d 62 dd 7f bd f9 52 77 be 50 48 9f 3d
       0.09865089 -0.062466986 -0.24152745 0.077774644
0003f0 4c 5d f7 3c 18 dd 07 be a1 50 ce be 9c ef 43 3e
       0.030195855 -0.13267934 -0.4029589 0.19134372

sequential_2_1/conv2d_2_1/Relu;sequential_2_1/conv2d_2_1/add;sequential_2_1/conv2d_2_1/convolution; f4 [32]
000000 0e 0b 93 bd 4f 21 d1 3b 70 0e fa bb e9 40 c1 3b
       -0.07179843 0.0063821445 -0.0076311156 0.0058976305
000010 b2 3f bd 3b 82 0f fe bc 64 8e 54 bc 06 2e 97 3c
       0.0057754153 -0.031013254 -0.012973402 0.018454563
000020 1c 40 21 bc 0e d1 7b bc e0 f1 f8 bc 46 57 f6 bc
       -0.009841945 -0.015369667 -0.030388772 -0.030070912
000030 c9 f1 f2 bd b5 77 9a bc 38 54 29 3d 73 9a 2f bc
       -0.11862523 -0.018855909 0.041340083 -0.010717976
000040 d4 c8 ec bb 1f dd 4f bc 15 c6 62 3c 74 97 4c bc
       -0.007226089 -0.012686997 0.013841172 -0.012487281
000050 46 a5 ba bd 19 4b 94 bc 9b 23 67 bc 07 d1 36 bc
       -0.09113555 -0.018102216 -0.01410761 -0.011158234
000060 a2 d0 73 bc 0d 22 02 bb 5e b5 0a bc d6 5b d3 bc
       -0.014881285 -0.0019856722 -0.008466093 -0.025800627
000070 2f 76 e9 bc 39 ca fe 39 76 4e 05 3c 5e dd a9 3c
       -0.028498737 0.00048597323 0.008136382 0.020735439
